…
HED","progressUpdateIntervalMs":500,"$$hashKey":"object:2183"},{"text":"%pyspark\nmodel.summary()","user":"admin","dateUpdated":"2019-07-25T17:39:25+0000","config":{"colWidth":6,"editorMode":"ace/mode/python","results":{},"enabled":true,"editorSetting":{"language":"python"}},"settings":{"params":{},"forms":{}},"results":{"code":"SUCCESS","msg":[{"type":"TEXT","data":"_________________________________________________________________\nLayer (type)                 Output Shape              Param #   \n=================================================================\ninput_1 (InputLayer)         (None, 1000)              0         \n_________________________________________________________________\nembedding_1 (Embedding)      (None, 1000, 300)         1395900   \n_________________________________________________________________\nlstm_1 (LSTM)                (None, 150)               270600    \n_________________________________________________________________\nbatch_normalization_1 (Batch (None, 150)               600       \n_________________________________________________________________\ndense_3 (Dense)              (None, 100)               15100     \n_________________________________________________________________\ndropout_2 (Dropout)          (None, 100)               0         \n_________________________________________________________________\nbatch_normalization_2 (Batch (None, 100)               400       \n_________________________________________________________________\ndense_4 (Dense)              (None, 4)                 404       \n=================================================================\nTotal params: 1,683,004\nTrainable params: 286,604\nNon-trainable params: 1,396,400\n_________________________________________________________________\n"}]},"apps":[],"jobName":"paragraph_1564071475041_1574408963","id":"20190722-132157_155074868","dateCreated":"2019-07-25T16:17:55+0000","dateStarted":"2019-07-25T17:41:16+0
…
