…
SHED","progressUpdateIntervalMs":500,"$$hashKey":"object:392"},{"text":"%pyspark\nmodel.summary()","user":"admin","dateUpdated":"2019-07-22T13:22:15+0000","config":{"colWidth":6,"enabled":true,"results":{},"editorSetting":{"language":"python"},"editorMode":"ace/mode/python"},"settings":{"params":{},"forms":{}},"results":{"code":"SUCCESS","msg":[{"type":"TEXT","data":"_________________________________________________________________\nLayer (type)                 Output Shape              Param #   \n=================================================================\ninput_5 (InputLayer)         (None, 1000)              0         \n_________________________________________________________________\nembedding_5 (Embedding)      (None, 1000, 300)         1395900   \n_________________________________________________________________\nlstm_5 (LSTM)                (None, 150)               270600    \n_________________________________________________________________\nbatch_normalization_9 (Batch (None, 150)               600       \n_________________________________________________________________\ndense_9 (Dense)              (None, 100)               15100     \n_________________________________________________________________\ndropout_5 (Dropout)          (None, 100)               0         \n_________________________________________________________________\nbatch_normalization_10 (Batc (None, 100)               400       \n_________________________________________________________________\ndense_10 (Dense)             (None, 4)                 404       \n=================================================================\nTotal params: 1,683,004\nTrainable params: 286,604\nNon-trainable params: 1,396,400\n_________________________________________________________________\n"}]},"apps":[],"jobName":"paragraph_1563801717110_-348535799","id":"20190722-132157_155074868","dateCreated":"2019-07-22T13:21:57+0000","dateStarted":"2019-07-22T13:22:15+0
…
